{"data": {}, "embedding": {"vocabulary_size": 70, "embedding_dimension": 100}, "hiperparameter": {"model_summary": "Model: \"sequential\"\n_________________________________________________________________\n Layer (type)                Output Shape              Param #   \n=================================================================\n embedding (Embedding)       (None, 200, 100)          7100      \n                                                                 \n dense (Dense)               (None, 200, 128)          12928     \n                                                                 \n dense_1 (Dense)             (None, 200, 128)          16512     \n                                                                 \n dense_2 (Dense)             (None, 200, 128)          16512     \n                                                                 \n dense_3 (Dense)             (None, 200, 128)          16512     \n                                                                 \n dense_4 (Dense)             (None, 200, 128)          16512     \n                                                                 \n dense_5 (Dense)             (None, 200, 128)          16512     \n                                                                 \n dense_6 (Dense)             (None, 200, 128)          16512     \n                                                                 \n flatten (Flatten)           (None, 25600)             0         \n                                                                 \n dense_7 (Dense)             (None, 2)                 51202     \n                                                                 \n=================================================================\nTotal params: 170,302\nTrainable params: 170,302\nNon-trainable params: 0\n_________________________________________________________________\n", "epoch": 1, "train_batch_size": 32, "test_batch_size": 32, "sequence_length": 200}, "test_result": {"test_time": 2
…
