{"data": {}, "embedding": {"vocabulary_size": 70, "embedding_dimension": 100}, "hiperparameter": {"model_summary": "Model: \"sequential\"\n_________________________________________________________________\n Layer (type)                Output Shape              Param #   \n=================================================================\n embedding (Embedding)       (None, 200, 100)          7100      \n                                                                 \n conv1d (Conv1D)             (None, 198, 128)          38528     \n                                                                 \n max_pooling1d (MaxPooling1D  (None, 66, 128)          0         \n )                                                               \n                                                                 \n dropout (Dropout)           (None, 66, 128)           0         \n                                                                 \n conv1d_1 (Conv1D)           (None, 66, 128)           114816    \n                                                                 \n dropout_1 (Dropout)         (None, 66, 128)           0         \n                                                                 \n conv1d_2 (Conv1D)           (None, 66, 128)           82048     \n                                                                 \n dropout_2 (Dropout)         (None, 66, 128)           0         \n                                                                 \n conv1d_3 (Conv1D)           (None, 66, 128)           49280     \n                                                                 \n max_pooling1d_1 (MaxPooling  (None, 22, 128)          0         \n 1D)                                                             \n                                                                 \n dropout_3 (Dropout)         (None, 22, 128)           0         \n                                                                 \n conv1d_4 (Conv1D)           (None, 22, 128)           82048     \n                                                                 \n dropout_4 (Dropout)         (None, 22, 128)           0         \n                                                                 \n conv1d_5 (Conv1D)           (None, 22, 128)           49280     \n                                                                 \n max_pooling1d_2 (MaxPooling  (None, 7, 128)           0         \n 1D)                                                             \n                                                                 \n dropout_5 (Dropout)         (None, 7, 128)            0         \n                                                                 \n conv1d_6 (Conv1D)           (None, 7, 128)            49280     \n                                                                 \n max_pooling1d_3 (MaxPooling  (None, 2, 128)           0         \n 1D)                                                             \n                                                                 \n dropout_6 (Dropout)         (None, 2, 128)            0         \n                                                                 \n flatten (Flatten)           (None, 256)               0         \n                                                                 \n dense (Dense)               (None, 2)                 514       \n                                                                 \n=================================================================\nTotal params: 472,894\nTrainable params: 472,894\nNon-trainable params: 0\n_________________________________________________________________\n", "epoch": 8, "train_batch_size": 64, "test_batch_size": 64, "sequence_length": 200}, "test_result": {"test_time":
…
